/* --- Header --- */
.app-header {
    position: sticky;
    top: 0;
    z-index: 1000;
    background: var(--glass);
    backdrop-filter: blur(20px);
    -webkit-backdrop-filter: blur(20px);
    border-bottom: 1px solid var(--border);
    transition: 0.3s;
}

.header-content {
    max-width: 1400px;
    margin: 0 auto;
    padding: 12px 20px;
    display: flex;
    align-items: center;
    justify-content: space-between;
    gap: 20px;
}

.header-fact {
    font-size: 0.9rem;
    color: var(--muted);
    font-weight: 600;
    transition: opacity 0.5s ease, transform 0.5s ease;
    opacity: 1;
}

.header-fact.fade-out {
    opacity: 0;
    transform: translateY(-5px);
}

.logo {
    display: flex;
    align-items: center;
    gap: 12px;
    text-decoration: none;
    color: var(--text);
    font-size: 1.6rem;
    font-weight: 900;
}

.logo-box {
    width: 42px;
    height: 42px;
    background: var(--saffron);
    border-radius: 12px;
    display: grid;
    place-items: center;
    color: white;
    font-size: 1.3rem;
    box-shadow: 0 4px 12px rgba(255, 107, 0, 0.3);
}

.header-controls {
    display: flex;
    gap: 8px;
}

.control-btn {
    padding: 6px 14px;
    border-radius: 20px;
    border: 1px solid var(--border);
    background: var(--card);
    color: var(--text);
    cursor: pointer;
    font-weight: 700;
    display: flex;
    align-items: center;
    justify-content: center;
    transition: 0.3s;
    font-family: inherit;
    font-size: 0.85rem;
}

.control-btn:hover {
    background: var(--bg);
}

.control-btn.active {
    background: var(--saffron);
    color: white;
    border-color: var(--saffron);
}

/* --- Tab Bar --- */
.tab-bar {
    display: flex;
    justify-content: center;
    max-width: 1400px;
    margin: 0 auto;
    overflow-x: auto;
    scrollbar-width: none;
    padding: 0 20px;
    background: var(--bg);
    border-bottom: 1px solid var(--border);
}

.tab-bar::-webkit-scrollbar {
    display: none;
}

.tab-btn {
    padding: 16px 24px;
    background: none;
    border: none;
    border-bottom: 3px solid transparent;
    font-family: inherit;
    font-weight: 700;
    font-size: 1rem;
    color: var(--muted);
    cursor: pointer;
    white-space: nowrap;
    transition: var(--transition);
}

.tab-btn:hover {
    color: var(--text);
}

.tab-btn[aria-selected="true"] {
    color: var(--saffron);
    border-bottom-color: var(--saffron);
}

.ai-status-dot {
    width: 8px;
    height: 8px;
    border-radius: 50%;
    display: inline-block;
    flex-shrink: 0;
    transition: background 0.4s ease;
}

.ai-status-dot.live {
    background: #16a34a;
    animation: livePulse 2s infinite;
}

.ai-status-dot.mock {
    background: #f59e0b;
}

@keyframes livePulse {
    0% {
        box-shadow: 0 0 0 0 rgba(22, 163, 74, 0.6);
    }

    70% {
        box-shadow: 0 0 0 6px rgba(22, 163, 74, 0);
    }

    100% {
        box-shadow: 0 0 0 0 rgba(22, 163, 74, 0);
    }
}

/* --- Hero Section (Fix 5 Upgrade) --- */
.hero {
    padding: 60px 20px 80px;
    text-align: center;
    background: linear-gradient(135deg, rgba(255, 107, 0, 0.05) 0%, rgba(255, 255, 255, 1) 50%, rgba(22, 163, 74, 0.05) 100%);
    position: relative;
    overflow: hidden;
}

/* === Systematic Sectioning === */
.home-section {
    padding: 60px 20px;
    background: var(--white);
}

.home-section-alt {
    padding: 60px 20px;
    background: var(--white);
}

.container {
    max-width: 1200px;
    margin: 0 auto;
}

/* === Booth Teaser (Winning Content) === */
.booth-teaser-layout {
    display: grid;
    grid-template-columns: 1.2fr 1fr;
    gap: 60px;
    align-items: center;
}

@media (max-width: 800px) {
    .booth-teaser-layout {
        grid-template-columns: 1fr;
        text-align: center;
    }

    .teaser-text .hero-stats-row {
        justify-content: center !important;
    }
}

.evm-card-compact {
    background: #e2e8f0;
    border: 8px solid #94a3b8;
    border-radius: 12px;
    padding: 15px;
    box-shadow: 0 20px 40px rgba(0, 0, 0, 0.1);
}

.compact-header {
    background: #475569;
    color: white;
    padding: 5px;
    text-align: center;
    font-size: 0.7rem;
    font-weight: 800;
    margin-bottom: 10px;
}

.compact-row {
    background: white;
    margin-bottom: 4px;
    padding: 8px;
    display: flex;
    justify-content: space-between;
    align-items: center;
    font-size: 0.8rem;
    font-weight: 700;
}

.blue-btn {
    width: 20px;
    height: 15px;
    background: #3b82f6;
    border: 2px solid #1e40af;
}

.compact-vvpat {
    margin-top: 15px;
    height: 60px;
    background: white;
    border: 2px solid #333;
    display: grid;
    place-items: center;
    font-size: 0.6rem;
    font-weight: 800;
    color: #94a3b8;
}

.hero-content {
    position: relative;
    z-index: 1;
}

.hero h1 {
    font-size: clamp(3.5rem, 10vw, 6rem);
    font-weight: 900;
    color: var(--text);
    line-height: 1.05;
    margin-bottom: 25px;
    letter-spacing: -2px;
}

.hero h1 .highlight {
    color: var(--saffron);
    display: block;
}

.hero-badge {
    display: inline-flex;
    align-items: center;
    gap: 8px;
    padding: 8px 20px;
    background: white;
    color: var(--saffron);
    border-radius: 30px;
    font-size: 0.9rem;
    font-weight: 800;
    margin-bottom: 30px;
    box-shadow: 0 4px 15px rgba(0, 0, 0, 0.05);
}

/* === Discovery Grid (Systematic Home) === */
.discovery-grid {
    display: grid;
    grid-template-columns: repeat(auto-fit, minmax(300px, 1fr));
    gap: 30px;
    margin-bottom: 60px;
}

.discovery-card {
    background: var(--card);
    border-radius: 30px;
    padding: 40px 30px;
    border: 1px solid var(--border);
    box-shadow: var(--shadow);
    transition: all 0.3s var(--spring);
    cursor: pointer;
    text-align: left;
    display: flex;
    flex-direction: column;
    gap: 15px;
}

.discovery-card:hover {
    transform: translateY(-10px);
    border-color: var(--saffron);
    box-shadow: 0 20px 50px rgba(255, 107, 0, 0.1);
}

.discovery-card .icon {
    font-size: 3rem;
    background: var(--saffron-light);
    width: 70px;
    height: 70px;
    display: grid;
    place-items: center;
    border-radius: 20px;
}

.discovery-card h3 {
    font-size: 1.6rem;
    color: var(--navy);
}

.discovery-card p {
    color: var(--muted);
    font-weight: 600;
    font-size: 1rem;
    line-height: 1.5;
}

.discovery-card .link {
    color: var(--saffron);
    font-weight: 800;
    margin-top: auto;
    font-size: 0.95rem;
}

/* === Booth Simulator Layout === */
.booth-sim-layout {
    display: grid;
    grid-template-columns: 2fr 1fr;
    gap: 40px;
    margin-top: 40px;
}

@media (max-width: 900px) {
    .booth-sim-layout {
        grid-template-columns: 1fr;
    }
}

.booth-action-area {
    display: flex;
    flex-direction: column;
    gap: 20px;
}

.mock-vote-card {
    background: #111827;
    border-radius: 30px;
    padding: 40px;
    color: white;
    text-align: center;
    border: 1px solid #374151;
    box-shadow: 0 20px 40px rgba(0, 0, 0, 0.2);
}

.mock-vote-card h3 {
    font-size: 2rem;
    margin-bottom: 15px;
    color: white;
}

.mock-vote-card p {
    color: #9ca3af;
    margin-bottom: 25px;
    font-weight: 600;
}

/* === Floating Q Dost Guide === */
.qdost-guide {
    position: fixed;
    bottom: 30px;
    right: 30px;
    z-index: 5000;
    display: flex;
    flex-direction: column;
    align-items: flex-end;
    gap: 15px;
}

.guide-avatar {
    width: 65px;
    height: 65px;
    background: var(--saffron);
    border-radius: 50%;
    display: grid;
    place-items: center;
    font-size: 2rem;
    cursor: pointer;
    box-shadow: 0 10px 30px rgba(255, 107, 0, 0.4);
    position: relative;
    transition: transform 0.3s var(--spring);
}

.guide-avatar:hover {
    transform: scale(1.1);
}

.avatar-ripple {
    position: absolute;
    top: 0;
    left: 0;
    right: 0;
    bottom: 0;
    border-radius: 50%;
    border: 2px solid var(--saffron);
    animation: ripple 2s infinite;
}

@keyframes ripple {
    0% {
        transform: scale(1);
        opacity: 1;
    }

    100% {
        transform: scale(2);
        opacity: 0;
    }
}

.guide-bubble {
    background: var(--card);
    border: 1px solid var(--border);
    border-radius: 20px;
    padding: 25px;
    width: 300px;
    box-shadow: 0 20px 60px rgba(0, 0, 0, 0.15);
    position: relative;
    display: none;
    /* Controlled by JS */
    animation: slideUp 0.4s var(--spring);
}

.guide-bubble.active {
    display: block;
}

@keyframes slideUp {
    from {
        transform: translateY(20px);
        opacity: 0;
    }

    to {
        transform: translateY(0);
        opacity: 1;
    }
}

.guide-close {
    position: absolute;
    top: 10px;
    right: 15px;
    font-size: 1.2rem;
    cursor: pointer;
    color: var(--muted);
}

.guide-bubble p {
    font-weight: 700;
    color: var(--text);
    margin-bottom: 15px;
    font-size: 1.1rem;
}

.btn-guide-action {
    background: var(--navy);
    color: white;
    border: none;
    padding: 8px 15px;
    border-radius: 12px;
    font-weight: 800;
    font-size: 0.85rem;
    cursor: pointer;
    transition: 0.3s;
}

.btn-guide-action:hover {
    opacity: 0.9;
}


/* === Finder Section (Side-by-Side) === */
.finder-split-layout {
    display: grid;
    grid-template-columns: 1fr 1fr;
    gap: 30px;
    margin-top: 30px;
}

@media (max-width: 768px) {
    .finder-split-layout {
        grid-template-columns: 1fr;
    }
}

.finder-card {
    display: flex;
    flex-direction: column;
    padding: 30px;
}

.finder-card .card-icon {
    font-size: 2rem;
    margin-bottom: 15px;
}

.finder-select,
.finder-input-group input {
    width: 100%;
    padding: 15px;
    border: 2px solid var(--border);
    border-radius: 12px;
    font-family: inherit;
    font-weight: 700;
    font-size: 1rem;
    outline: none;
    transition: 0.3s;
}

.finder-select:focus,
.finder-input-group input:focus {
    border-color: var(--saffron);
}

.finder-input-group {
    display: flex;
    gap: 10px;
}

.finder-input-group input {
    flex: 1;
}

.result-box {
    margin-top: 20px;
    padding: 20px;
    background: #f8fafc;
    border-radius: 12px;
    border-left: 4px solid var(--saffron);
}

/* --- Myths Flashcards (3D Flip) --- */
.myths-grid {
    display: grid;
    grid-template-columns: repeat(auto-fit, minmax(280px, 1fr));
    gap: 24px;
    margin-top: 40px;
}

.myth-card {
    height: 220px;
    perspective: 1000px;
    cursor: pointer;
}

.myth-inner {
    position: relative;
    width: 100%;
    height: 100%;
    transition: transform 0.6s cubic-bezier(0.4, 0, 0.2, 1);
    transform-style: preserve-3d;
}

.myth-card.flipped .myth-inner {
    transform: rotateY(180deg);
}

.myth-front,
.myth-back {
    position: absolute;
    width: 100%;
    height: 100%;
    backface-visibility: hidden;
    padding: 24px;
    border-radius: 16px;
    display: flex;
    flex-direction: column;
    justify-content: center;
    box-shadow: 0 4px 20px rgba(0, 0, 0, 0.05);
    border: 1px solid var(--border);
}

.myth-front {
    background: var(--white);
    color: var(--navy);
}

.myth-back {
    background: #ecfdf5;
    /* Soft green */
    color: #065f46;
    transform: rotateY(180deg);
}

.myth-badge,
.fact-badge {
    position: absolute;
    top: 15px;
    right: 15px;
    font-size: 0.65rem;
    font-weight: 800;
    padding: 4px 8px;
    border-radius: 4px;
    letter-spacing: 1px;
}

.myth-badge {
    background: #fee2e2;
    color: #ef4444;
}

.fact-badge {
    background: #dcfce7;
    color: #22c55e;
}

.myth-cat {
    font-weight: 700;
    font-size: 0.75rem;
    color: var(--saffron);
    text-transform: uppercase;
    margin-bottom: 8px;
}

.myth-text {
    font-weight: 700;
    font-size: 1.1rem;
    line-height: 1.4;
}

.fact-text {
    font-weight: 600;
    font-size: 1rem;
    line-height: 1.5;
}

.myth-action {
    margin-top: auto;
    font-size: 0.75rem;
    font-weight: 700;
    color: var(--muted);
    opacity: 0.7;
}

.result-grid {
    display: grid;
    grid-template-columns: 1fr 1fr;
    gap: 12px;
}

@media (max-width: 480px) {
    .result-grid {
        grid-template-columns: 1fr;
    }
}

.info-block {
    background: white;
    padding: 15px;
    border-radius: 12px;
    border: 1px solid #e2e8f0;
    display: flex;
    flex-direction: column;
    gap: 4px;
    box-shadow: 0 2px 8px rgba(0, 0, 0, 0.02);
}

.info-block strong {
    font-size: 0.7rem;
    text-transform: uppercase;
    color: var(--muted);
    letter-spacing: 1px;
}

.info-block span {
    font-weight: 800;
    color: var(--navy);
    font-size: 1.1rem;
}

/* === Premium Timeline === */
.timeline-visual {
    padding: 60px 0;
    position: relative;
    overflow: visible;
}

.tl-track {
    position: relative;
    height: 6px;
    background: #e2e8f0;
    border-radius: 3px;
    margin: 40px 0;
}

.tl-progress-line {
    position: absolute;
    height: 100%;
    background: #16a34a;
    /* Winning Green */
    width: 0%;
    transition: 1s cubic-bezier(0.4, 0, 0.2, 1);
    border-radius: 3px;
    box-shadow: 0 0 15px rgba(22, 163, 74, 0.4);
}

.tl-nodes {
    display: flex;
    justify-content: space-between;
    position: absolute;
    top: -12px;
    width: 100%;
}

.tl-node {
    width: 30px;
    height: 30px;
    background: white;
    border: 3px solid #cbd5e1;
    border-radius: 50%;
    cursor: pointer;
    transition: 0.3s;
    position: relative;
    z-index: 2;
}

.tl-node.active {
    border-color: #16a34a;
    background: #16a34a;
    transform: scale(1.2);
}

.tl-node-label {
    position: absolute;
    top: 35px;
    left: 50%;
    transform: translateX(-50%);
    white-space: nowrap;
    font-size: 0.75rem;
    font-weight: 800;
    color: var(--muted);
}

.traveler {
    position: absolute;
    top: -45px;
    font-size: 2.2rem;
    transform: translateX(-30%);
    /* Better alignment pushing towards goal */
    transition: 1s cubic-bezier(0.4, 0, 0.2, 1);
    filter: drop-shadow(0 4px 10px rgba(0, 0, 0, 0.15));
    z-index: 3;
}

.phase-card {
    background: white;
    padding: 30px;
    border-radius: 20px;
    border: 1px solid var(--border);
    margin-top: 60px;
    box-shadow: 0 20px 40px rgba(0, 0, 0, 0.05);
    display: none;
    animation: fadeIn 0.5s ease;
}

.phase-card.active {
    display: block;
}

/* === AI Chat Interface === */
.chat-window {
    background: var(--white);
    border: 1px solid var(--border);
    border-radius: 24px;
    height: 600px;
    display: flex;
    flex-direction: column;
    overflow: hidden;
    box-shadow: 0 20px 50px rgba(0, 0, 0, 0.05);
}

.chat-messages {
    flex: 1;
    padding: 30px;
    overflow-y: auto;
    display: flex;
    flex-direction: column;
    gap: 20px;
    background: #f8fafc;
}

.msg {
    max-width: 80%;
    padding: 15px 20px;
    border-radius: 20px;
    font-weight: 600;
    font-size: 0.95rem;
    line-height: 1.5;
    position: relative;
    animation: slideUp 0.3s ease;
}

.msg-bot {
    align-self: flex-start;
    background: white;
    color: var(--navy);
    border-bottom-left-radius: 4px;
    border: 1px solid var(--border);
}

.msg-user {
    align-self: flex-end;
    background: var(--navy);
    color: white;
    border-bottom-right-radius: 4px;
}

.chat-input-area {
    padding: 20px 30px;
    background: white;
    border-top: 1px solid var(--border);
    display: flex;
    gap: 15px;
    align-items: center;
}

.chat-input-area input {
    flex: 1;
    padding: 15px 20px;
    border: 2px solid #f1f5f9;
    border-radius: 14px;
    outline: none;
    font-family: inherit;
    font-weight: 600;
    transition: 0.3s;
}

.chat-input-area input:focus {
    border-color: var(--saffron);
}

/* --- Cards --- */
.card {
    background: var(--card);
    border-radius: var(--radius);
    padding: 30px;
    border: 1px solid var(--border);
    box-shadow: var(--shadow);
}

.stat-card {
    background: white;
    /* Fix 2: Should be var(--card) in dark mode, handled in dark-mode.css */
    padding: 35px;
    border-radius: 24px;
    border: 1px solid var(--border);
    box-shadow: 0 10px 30px rgba(0, 0, 0, 0.04);
    transition: transform 0.3s var(--spring);
}

.stat-card:hover {
    transform: translateY(-10px);
}

.stat-card .value {
    font-size: 3.5rem;
    font-weight: 900;
    color: var(--navy);
    margin-bottom: 5px;
}

/* --- Fix 9: Consolidate Booth Grid/Card --- */
.booth-grid {
    display: grid;
    grid-template-columns: repeat(auto-fit, minmax(200px, 1fr));
    gap: 24px;
    margin: 40px auto;
    max-width: 1200px;
}

.booth-card {
    background: var(--card);
    border-radius: 20px;
    padding: 30px;
    text-align: center;
    border: 1px solid var(--border);
    border-left: 8px solid #e2e8f0;
    transition: all 0.3s var(--spring);
    cursor: pointer;
    display: flex;
    flex-direction: column;
    align-items: center;
    justify-content: center;
    min-height: 160px;
}

.booth-card:hover {
    transform: translateY(-10px) scale(1.02);
    box-shadow: 0 20px 40px rgba(0, 0, 0, 0.1);
    border-color: var(--saffron);
}

.booth-card.blue {
    border-left-color: #3b82f6;
}

.booth-card.green {
    border-left-color: #22c55e;
}

.booth-card.gold {
    border-left-color: #eab308;
}

.booth-card.orange {
    border-left-color: #f97316;
}

.booth-card.purple {
    border-left-color: #8b5cf6;
}

.booth-card .icon {
    font-size: 2.5rem;
    margin-bottom: 15px;
}

.booth-card .role {
    font-size: 0.9rem;
    font-weight: 800;
    color: var(--muted);
    text-transform: uppercase;
    letter-spacing: 1px;
}

.booth-card .action {
    font-weight: 800;
    color: var(--text);
    font-size: 1.3rem;
    margin-top: 5px;
}

/* Original Booth Item Styling */
.booth-item {
    background: var(--grey-bg);
    border: 1px solid var(--border);
    border-radius: 8px;
    padding: 16px;
    cursor: pointer;
    transition: var(--transition);
    display: flex;
    flex-direction: column;
    align-items: center;
    justify-content: center;
    text-align: center;
    font-weight: 600;
}

.booth-item:hover,
.booth-item:focus-visible {
    border-color: var(--saffron);
    background: #fff7ed;
    transform: translateY(-2px);
    box-shadow: 0 4px 12px rgba(255, 107, 0, 0.1);
}

/* --- Buttons --- */
.btn {
    padding: 16px 36px;
    border-radius: 20px;
    border: none;
    font-weight: 800;
    cursor: pointer;
    font-size: 1.1rem;
    transition: all 0.3s var(--spring);
    display: inline-flex;
    align-items: center;
    justify-content: center;
    gap: 12px;
}

.btn-primary {
    background: var(--saffron);
    color: white;
    box-shadow: 0 10px 30px rgba(255, 107, 0, 0.3);
}

.btn-white {
    background: white;
    color: var(--navy);
    border: 1px solid var(--border);
}

.btn-green {
    background: var(--green);
    color: white;
}

.btn:hover {
    transform: translateY(-3px);
    box-shadow: 0 15px 35px rgba(0, 0, 0, 0.15);
}

/* --- Chat Components (Fix 4) --- */
.chat-container {
    background: var(--card);
    border-radius: 30px;
    border: 1px solid var(--border);
    overflow: hidden;
    height: 700px;
    display: flex;
    flex-direction: column;
    box-shadow: var(--shadow);
}

.chat-messages {
    flex-grow: 1;
    overflow-y: auto;
    padding: 30px;
    display: flex;
    flex-direction: column;
    gap: 20px;
}

.msg {
    max-width: 80%;
    padding: 15px 25px;
    border-radius: 20px;
    font-weight: 600;
    line-height: 1.5;
}

.msg-user {
    align-self: flex-end;
    background: var(--saffron);
    color: white;
    border-bottom-right-radius: 5px;
}

.msg-bot {
    align-self: flex-start;
    background: var(--bg);
    color: var(--text);
    border-bottom-left-radius: 5px;
}

.chat-input-area {
    padding: 20px 30px;
    background: var(--white);
    border-top: 1px solid var(--border);
    display: flex;
    gap: 15px;
}

#chat-input {
    flex-grow: 1;
    padding: 15px 25px;
    border-radius: 15px;
    border: 2px solid var(--border);
    font-family: inherit;
    font-size: 1rem;
    outline: none;
    transition: 0.3s;
}

#chat-input:focus {
    border-color: var(--saffron);
}

/* Bonus: Loading dots */
.spinner-dot {
    width: 8px;
    height: 8px;
    background: var(--saffron);
    border-radius: 50%;
    animation: bounce 1.4s infinite;
}

@keyframes bounce {

    0%,
    100% {
        opacity: 0.3;
        transform: scale(0.8);
    }

    50% {
        opacity: 1;
        transform: scale(1);
    }
}

/* --- Modals --- */
.info-modal-overlay {
    position: fixed;
    top: 0;
    left: 0;
    width: 100%;
    height: 100%;
    background: rgba(0, 0, 0, 0.6);
    backdrop-filter: blur(10px);
    z-index: 3000;
    display: none;
    place-items: center;
    padding: 20px;
}

.info-modal {
    background: var(--card);
    padding: 50px;
    border-radius: 40px;
    max-width: 600px;
    width: 100%;
    position: relative;
    text-align: center;
    border: 1px solid var(--border);
    box-shadow: 0 40px 100px rgba(0, 0, 0, 0.3);
}


.onboarding-modal {
    display: flex;
    flex-direction: column;
    gap: 20px;
    position: relative;
}

.modal-close {
    position: absolute;
    top: 20px;
    right: 20px;
    background: none;
    border: none;
    font-size: 2rem;
    cursor: pointer;
    color: var(--muted);
    line-height: 1;
    transition: 0.3s;
}

.modal-close:hover {
    color: var(--saffron);
}

.onboarding-feature {
    display: flex;
    align-items: center;
    gap: 20px;
    text-align: left;
    padding: 15px;
    background: var(--bg);
    border-radius: 15px;
}

.onboarding-feature .icon {
    font-size: 2rem;
}

/* --- Timeline UI Fix --- */
/* === Winning Timeline Redesign === */
.timeline-visual {
    margin: 60px 0 80px;
    padding: 40px;
    background: #ffffff;
    border-radius: 30px;
    border: 1px solid rgba(0, 0, 0, 0.05);
    box-shadow: 0 10px 40px rgba(0, 0, 0, 0.03);
    position: relative;
}

.tl-track {
    position: relative;
    height: 4px;
    background: #e2e8f0;
    margin: 40px 10px;
    border-radius: 2px;
}

.tl-progress-line {
    position: absolute;
    top: 0;
    left: 0;
    height: 100%;
    background: linear-gradient(90deg, #22c55e, #16a34a);
    width: 0%;
    transition: width 1s cubic-bezier(0.34, 1.56, 0.64, 1);
    box-shadow: 0 0 15px rgba(22, 163, 74, 0.4);
    z-index: 1;
}

.tl-nodes {
    display: flex;
    justify-content: space-between;
    width: 100%;
    position: absolute;
    top: -13px;
    /* Center nodes on 4px line */
    left: 0;
    z-index: 2;
}

.node-point {
    width: 30px;
    height: 30px;
    border-radius: 50%;
    background: white;
    border: 3px solid #e2e8f0;
    cursor: pointer;
    transition: all 0.4s var(--spring);
    position: relative;
    display: flex;
    align-items: center;
    justify-content: center;
}

.node-point::after {
    content: '';
    width: 10px;
    height: 10px;
    background: #cbd5e1;
    border-radius: 50%;
    transition: 0.3s;
}

.node-point.active {
    border-color: #16a34a;
    background: white;
    transform: scale(1.2);
    box-shadow: 0 0 20px rgba(22, 163, 74, 0.2);
}

.node-point.active::after {
    background: #16a34a;
    transform: scale(1.2);
}

.node-label {
    position: absolute;
    top: 40px;
    left: 50%;
    transform: translateX(-50%);
    white-space: nowrap;
    font-size: 0.8rem;
    font-weight: 800;
    color: #64748b;
    transition: 0.3s;
    letter-spacing: -0.2px;
}

.node-point.active .node-label {
    color: #1e293b;
    font-size: 0.85rem;
}

.traveler {
    position: absolute;
    top: -55px;
    /* Position above the track */
    left: 0%;
    font-size: 2.5rem;
    transform: translateX(-50%);
    transition: left 1s cubic-bezier(0.34, 1.56, 0.64, 1);
    z-index: 3;
    filter: drop-shadow(0 5px 15px rgba(0, 0, 0, 0.1));
}

.phase-card {
    display: flex;
    gap: 20px;
    align-items: flex-start;
}

.phase-visual {
    font-size: 4rem;
    line-height: 1;
}

.countdown-chip {
    display: inline-block;
    padding: 5px 12px;
    background: var(--saffron);
    color: white;
    border-radius: 20px;
    font-size: 0.8rem;
    font-weight: 800;
    margin-bottom: 10px;
}

.phase-list {
    margin-top: 10px;
    padding-left: 20px;
    list-style-type: disc;
    color: var(--muted);
}

/* === TAB 3: JOURNEY === */
.score-container {
    text-align: center;
    margin-bottom: 40px;
}

.score-circle {
    display: flex;
    flex-direction: column;
    align-items: center;
    justify-content: center;
    margin-bottom: 20px;
}

.score-value {
    font-size: 4rem;
    font-weight: 900;
    color: var(--saffron);
    font-family: 'Fraunces', serif;
    line-height: 1;
}

.score-label {
    display: inline-block;
    padding: 6px 16px;
    background: var(--navy);
    color: white;
    border-radius: 20px;
    font-weight: 600;
    margin-top: 10px;
}

.progress-container {
    height: 14px;
    background: #e2e8f0;
    /* Light Grey background for the track */
    border-radius: 10px;
    margin: 20px 0;
    overflow: hidden;
    width: 100%;
    position: relative;
    box-shadow: inset 0 2px 4px rgba(0, 0, 0, 0.05);
}

.progress-fill {
    height: 100%;
    background: linear-gradient(90deg, #22c55e, #16a34a);
    /* Vibrant Winning Green */
    width: 0%;
    border-radius: 10px;
    transition: width 1.5s cubic-bezier(0.34, 1.56, 0.64, 1);
    box-shadow: 0 0 15px rgba(22, 163, 74, 0.4);
}

.checklist-grid {
    display: grid;
    grid-template-columns: repeat(auto-fit, minmax(280px, 1fr));
    gap: 20px;
    margin-top: 40px;
}

.step-card {
    display: flex;
    align-items: flex-start;
    padding: 20px;
    background: var(--white);
    border: 2px solid var(--border);
    border-radius: var(--radius);
    cursor: pointer;
    transition: all 0.2s;
}

.step-card:hover {
    border-color: var(--saffron);
}

.step-card[aria-checked="true"] {
    border-color: var(--green);
    background: #f0fdf4;
}

.step-check {
    width: 32px;
    height: 32px;
    border: 3px solid var(--border);
    background: var(--bg);
    border-radius: 50%;
    margin-right: 16px;
    display: flex;
    align-items: center;
    justify-content: center;
    color: transparent;
    flex-shrink: 0;
    transition: all 0.3s cubic-bezier(0.4, 0, 0.2, 1);
    font-weight: 900;
    font-size: 1.2rem;
    box-shadow: inset 0 2px 4px rgba(0, 0, 0, 0.05);
}

.step-card:hover .step-check {
    border-color: var(--saffron);
    background: white;
}

.step-card[aria-checked="true"] .step-check {
    background: var(--green);
    border-color: var(--green);
    color: white;
    transform: scale(1.1);
    box-shadow: 0 4px 12px rgba(22, 163, 74, 0.3);
}

.step-content {
    flex-grow: 1;
    text-align: left;
}

.step-title {
    font-weight: 700;
    font-size: 1.1rem;
    margin-bottom: 5px;
}

.step-desc {
    font-size: 0.9rem;
    color: var(--muted);
}

/* === TAB 4: GLOSSARY === */
.glossary-grid {
    display: grid;
    grid-template-columns: repeat(auto-fit, minmax(300px, 1fr));
    gap: 24px;
}

.g-term-card {
    background: var(--white);
    border: 1px solid var(--border);
    border-radius: var(--radius);
    padding: 24px;
    transition: var(--transition);
}

.g-term-card:hover {
    border-color: var(--saffron);
    transform: translateY(-3px);
    box-shadow: var(--shadow);
}

.audio-trigger {
    background: none;
    border: none;
    cursor: pointer;
    font-size: 1.2rem;
    transition: transform 0.2s;
}

.audio-trigger:hover {
    transform: scale(1.2);
}

/* === TAB 5: FINDER === */
.finder-grid {
    display: grid;
    grid-template-columns: repeat(auto-fit, minmax(300px, 1fr));
    gap: 30px;
}

.result-box {
    background: var(--grey-bg);
    padding: 20px;
    border-radius: var(--radius);
    border-left: 4px solid var(--saffron);
}

.r-item {
    background: white;
    padding: 12px;
    border-radius: 8px;
    border: 1px solid var(--border);
}

.r-label {
    font-size: 0.8rem;
    color: var(--muted);
    text-transform: uppercase;
    font-weight: 700;
}

.r-val {
    font-weight: 800;
    font-size: 1.1rem;
    color: var(--text);
}

/* === TAB 6: ELIGIBLE WIZARD === */
.wizard-container {
    max-width: 600px;
    margin: 0 auto;
    background: var(--white);
    border-radius: var(--radius);
    box-shadow: var(--shadow);
    overflow: hidden;
    position: relative;
    min-height: 250px;
}

.wizard-step {
    padding: 40px;
    text-align: center;
    width: 100%;
    height: 100%;
    display: none;
    flex-direction: column;
    justify-content: center;
}

.wizard-step.active {
    display: flex;
    animation: slideLeft 0.4s var(--spring);
}

@keyframes slideLeft {
    from {
        transform: translateX(50px);
        opacity: 0;
    }

    to {
        transform: translateX(0);
        opacity: 1;
    }
}

/* === TAB 7: AI CHAT EXTRAS === */
.bot-avatar {
    width: 40px;
    height: 40px;
    background: var(--saffron);
    color: white;
    border-radius: 50%;
    display: flex;
    align-items: center;
    justify-content: center;
    font-size: 1.2rem;
}

.chips {
    display: flex;
    flex-wrap: wrap;
    gap: 8px;
    padding: 0 24px 16px;
}

.chip {
    padding: 6px 12px;
    border: 1px solid var(--border);
    border-radius: 16px;
    font-size: 0.85rem;
    cursor: pointer;
    background: var(--white);
    transition: var(--transition);
}

.chip:hover {
    border-color: var(--saffron);
    color: var(--saffron);
}

/* Flip Card Myths (Home) */
.myths-grid {
    display: grid;
    grid-template-columns: repeat(2, 1fr);
    gap: 24px;
    margin-bottom: 40px;
    max-width: 1000px;
    margin: 0 auto;
}

/* Myth Buster Grid (Full Section) */
.myth-buster-grid {
    display: grid;
    grid-template-columns: repeat(auto-fit, minmax(280px, 1fr));
    gap: 25px;
}

.flip-card {
    background: transparent;
    height: 220px;
    perspective: 1000px;
    cursor: pointer;
}

.flip-card-inner {
    position: relative;
    width: 100%;
    height: 100%;
    text-align: center;
    transition: transform 0.6s cubic-bezier(0.4, 0.2, 0.2, 1);
    transform-style: preserve-3d;
    border-radius: var(--radius);
    box-shadow: var(--shadow);
}

.flip-card.flipped .flip-card-inner {
    transform: rotateY(180deg);
}

.flip-card-front,
.flip-card-back {
    position: absolute;
    width: 100%;
    height: 100%;
    -webkit-backface-visibility: hidden;
    backface-visibility: hidden;
    display: flex;
    flex-direction: column;
    justify-content: center;
    align-items: center;
    padding: 24px;
    border-radius: var(--radius);
    border: 1px solid var(--border);
}

.flip-card-front {
    background-color: #fffaf5;
}

.flip-card-back {
    background-color: #f0fdf4;
    transform: rotateY(180deg);
}

/* === More Tabs Drawer (Mobile) === */
/* Desktop: "More" button hidden, all tabs visible */
.tab-btn-more {
    display: none;
    color: var(--saffron);
    font-weight: 800;
}

/* Secondary tabs visible on desktop by default */
.tab-btn-secondary {
    /* visible by default on desktop */
}

.more-tabs-drawer {
    display: none;
    flex-wrap: wrap;
    gap: 0;
    max-width: 1400px;
    margin: 0 auto;
    padding: 0 20px;
    background: var(--bg);
    border-bottom: 1px solid var(--border);
    animation: slideDown 0.2s ease;
}

@keyframes slideDown {
    from {
        opacity: 0;
        transform: translateY(-8px);
    }

    to {
        opacity: 1;
        transform: translateY(0);
    }
}

.more-tabs-drawer .tab-btn {
    padding: 12px 20px;
    font-size: 0.95rem;
}

/* Progress label strip below header */
.progress-label-strip {
    text-align: center;
    padding: 6px 20px;
    background: linear-gradient(135deg, rgba(255, 107, 0, 0.06), rgba(0, 80, 160, 0.06));
    border-bottom: 1px solid var(--border);
    font-size: 0.8rem;
    font-weight: 700;
    color: var(--saffron);
    letter-spacing: 0.5px;
}

body.dark .progress-label-strip {
    background: linear-gradient(135deg, rgba(255, 107, 0, 0.04), rgba(0, 80, 160, 0.04));
}

/* Mobile: hide secondary tabs, show "More" button */
@media (max-width: 768px) {
    .tab-btn-more {
        display: block;
    }

    .tab-btn-secondary {
        display: none !important;
    }

    .tab-btn {
        padding: 12px 16px;
        font-size: 0.9rem;
    }

    .hero h1 {
        font-size: clamp(2.5rem, 8vw, 4rem) !important;
    }

    .hero {
        padding: 60px 16px 80px !important;
    }

    .booth-flow {
        grid-template-columns: 1fr !important;
    }

    .myths-grid {
        grid-template-columns: 1fr !important;
    }
}

/* === Q Dost Suggest Strip === */
.qdost-suggest-strip {
    background: linear-gradient(135deg, rgba(255, 107, 0, 0.08) 0%, rgba(22, 163, 74, 0.08) 100%);
    border-bottom: 1px solid var(--border);
    padding: 14px 0;
}

.qdost-strip-inner {
    max-width: 1200px;
    margin: 0 auto;
    display: flex;
    align-items: center;
    gap: 14px;
    flex-wrap: wrap;
}

.qdost-strip-avatar {
    font-size: 1.8rem;
    flex-shrink: 0;
}

.qdost-strip-text {
    flex: 1;
    font-weight: 700;
    font-size: 1rem;
    color: var(--text);
    min-width: 200px;
}

.qdost-strip-btn {
    padding: 10px 24px !important;
    font-size: 0.9rem !important;
    border-radius: 14px !important;
    flex-shrink: 0;
}

/* === EVM Discovery Card === */
.evm-discover-card {
    display: flex;
    align-items: center;
    gap: 20px;
    max-width: 700px;
    margin: 0 auto;
    padding: 20px 28px;
    background: linear-gradient(135deg, #fff7ed, #fef3c7);
    border: 2px solid rgba(255, 107, 0, 0.2);
    border-radius: 20px;
    cursor: pointer;
    transition: all 0.3s var(--spring);
    text-align: left;
}

.evm-discover-card:hover {
    transform: translateY(-4px);
    box-shadow: 0 12px 30px rgba(255, 107, 0, 0.15);
    border-color: var(--saffron);
}

.evm-discover-icon {
    font-size: 2.5rem;
    flex-shrink: 0;
}

body.dark .evm-discover-card {
    background: linear-gradient(135deg, rgba(255, 107, 0, 0.1), rgba(255, 107, 0, 0.05));
    border-color: rgba(255, 107, 0, 0.3);
}

body.dark .qdost-suggest-strip {
    background: linear-gradient(135deg, rgba(255, 107, 0, 0.05) 0%, rgba(22, 163, 74, 0.05) 100%);
}

/* Header fact fade */
.header-fact {
    transition: opacity 0.5s ease;
}

.header-fact.fade-out {
    opacity: 0;
}